{"class_name": "Model", "config": {"name": "model", "layers": [{"name": "input_1", "class_name": "InputLayer", "config": {"batch_input_shape": [null, 11], "dtype": "float32", "sparse": false, "name": "input_1"}, "inbound_nodes": []}, {"name": "dense", "class_name": "Dense", "config": {"name": "dense", "trainable": true, "dtype": "float32", "units": 100, "activation": "relu", "use_bias": true, "kernel_initializer": {"class_name": "GlorotUniform", "config": {"seed": null}}, "bias_initializer": {"class_name": "Zeros", "config": {}}, "kernel_regularizer": null, "bias_regularizer": null, "activity_regularizer": null, "kernel_constraint": null, "bias_constraint": null}, "inbound_nodes": [["input_1", 0, 0, {}]]}, {"name": "res1a_branch2a", "class_name": "Dense", "config": {"name": "res1a_branch2a", "trainable": true, "dtype": "float32", "units": 300, "activation": "linear", "use_bias": true, "kernel_initializer": {"class_name": "GlorotUniform", "config": {"seed": null}}, "bias_initializer": {"class_name": "Zeros", "config": {}}, "kernel_regularizer": null, "bias_regularizer": null, "activity_regularizer": null, "kernel_constraint": null, "bias_constraint": null}, "inbound_nodes": [["dense", 0, 0, {}]]}, {"name": "res1a_branch2a_0", "class_name": "Dense", "config": {"name": "res1a_branch2a_0", "trainable": true, "dtype": "float32", "units": 300, "activation": "linear", "use_bias": true, "kernel_initializer": {"class_name": "GlorotUniform", "config": {"seed": null}}, "bias_initializer": {"class_name": "Zeros", "config": {}}, "kernel_regularizer": null, "bias_regularizer": null, "activity_regularizer": null, "kernel_constraint": null, "bias_constraint": null}, "inbound_nodes": [["dense", 0, 0, {}]]}, {"name": "res1a_branch2a_1", "class_name": "Dense", "config": {"name": "res1a_branch2a_1", "trainable": true, "dtype": "float32", "units": 300, "activation": "linear", "use_bias": true, "kernel_initializer": {"class_name": "GlorotUniform", "config": {"seed": null}}, "bias_initializer": {"class_name": "Zeros", "config": {}}, "kernel_regularizer": null, "bias_regularizer": null, "activity_regularizer": null, "kernel_constraint": null, "bias_constraint": null}, "inbound_nodes": [["dense", 0, 0, {}]]}, {"name": "activation", "class_name": "Activation", "config": {"name": "activation", "trainable": true, "dtype": "float32", "activation": "relu"}, "inbound_nodes": [["res1a_branch2a", 0, 0, {}]]}, {"name": "activation_1", "class_name": "Activation", "config": {"name": "activation_1", "trainable": true, "dtype": "float32", "activation": "relu"}, "inbound_nodes": [["res1a_branch2a_0", 0, 0, {}]]}, {"name": "activation_2", "class_name": "Activation", "config": {"name": "activation_2", "trainable": true, "dtype": "float32", "activation": "relu"}, "inbound_nodes": [["res1a_branch2a_1", 0, 0, {}]]}, {"name": "concatenate", "class_name": "Concatenate", "config": {"name": "concatenate", "trainable": true, "dtype": "float32", "axis": -1}, "inbound_nodes": [[["activation", 0, 0, {}], ["activation_1", 0, 0, {}], ["activation_2", 0, 0, {}]]]}, {"name": "res1a_branch2b", "class_name": "Dense", "config": {"name": "res1a_branch2b", "trainable": true, "dtype": "float32", "units": 100, "activation": "linear", "use_bias": true, "kernel_initializer": {"class_name": "GlorotUniform", "config": {"seed": null}}, "bias_initializer": {"class_name": "Zeros", "config": {}}, "kernel_regularizer": null, "bias_regularizer": null, "activity_regularizer": null, "kernel_constraint": null, "bias_constraint": null}, "inbound_nodes": [["concatenate", 0, 0, {}]]}, {"name": "add", "class_name": "Add", "config": {"name": "add", "trainable": true, "dtype": "float32"}, "inbound_nodes": [[["res1a_branch2b", 0, 0, {}], ["dense", 0, 0, {}]]]}, {"name": "activation_3", "class_name": "Activation", "config": {"name": "activation_3", "trainable": true, "dtype": "float32", "activation": "relu"}, "inbound_nodes": [["add", 0, 0, {}]]}, {"name": "res1b_branch2a", "class_name": "Dense", "config": {"name": "res1b_branch2a", "trainable": true, "dtype": "float32", "units": 300, "activation": "linear", "use_bias": true, "kernel_initializer": {"class_name": "GlorotUniform", "config": {"seed": null}}, "bias_initializer": {"class_name": "Zeros", "config": {}}, "kernel_regularizer": null, "bias_regularizer": null, "activity_regularizer": null, "kernel_constraint": null, "bias_constraint": null}, "inbound_nodes": [["activation_3", 0, 0, {}]]}, {"name": "res1b_branch2a_0", "class_name": "Dense", "config": {"name": "res1b_branch2a_0", "trainable": true, "dtype": "float32", "units": 300, "activation": "linear", "use_bias": true, "kernel_initializer": {"class_name": "GlorotUniform", "config": {"seed": null}}, "bias_initializer": {"class_name": "Zeros", "config": {}}, "kernel_regularizer": null, "bias_regularizer": null, "activity_regularizer": null, "kernel_constraint": null, "bias_constraint": null}, "inbound_nodes": [["activation_3", 0, 0, {}]]}, {"name": "res1b_branch2a_1", "class_name": "Dense", "config": {"name": "res1b_branch2a_1", "trainable": true, "dtype": "float32", "units": 300, "activation": "linear", "use_bias": true, "kernel_initializer": {"class_name": "GlorotUniform", "config": {"seed": null}}, "bias_initializer": {"class_name": "Zeros", "config": {}}, "kernel_regularizer": null, "bias_regularizer": null, "activity_regularizer": null, "kernel_constraint": null, "bias_constraint": null}, "inbound_nodes": [["activation_3", 0, 0, {}]]}, {"name": "activation_4", "class_name": "Activation", "config": {"name": "activation_4", "trainable": true, "dtype": "float32", "activation": "relu"}, "inbound_nodes": [["res1b_branch2a", 0, 0, {}]]}, {"name": "activation_5", "class_name": "Activation", "config": {"name": "activation_5", "trainable": true, "dtype": "float32", "activation": "relu"}, "inbound_nodes": [["res1b_branch2a_0", 0, 0, {}]]}, {"name": "activation_6", "class_name": "Activation", "config": {"name": "activation_6", "trainable": true, "dtype": "float32", "activation": "relu"}, "inbound_nodes": [["res1b_branch2a_1", 0, 0, {}]]}, {"name": "concatenate_1", "class_name": "Concatenate", "config": {"name": "concatenate_1", "trainable": true, "dtype": "float32", "axis": -1}, "inbound_nodes": [[["activation_4", 0, 0, {}], ["activation_5", 0, 0, {}], ["activation_6", 0, 0, {}]]]}, {"name": "res1b_branch2b", "class_name": "Dense", "config": {"name": "res1b_branch2b", "trainable": true, "dtype": "float32", "units": 100, "activation": "linear", "use_bias": true, "kernel_initializer": {"class_name": "GlorotUniform", "config": {"seed": null}}, "bias_initializer": {"class_name": "Zeros", "config": {}}, "kernel_regularizer": null, "bias_regularizer": null, "activity_regularizer": null, "kernel_constraint": null, "bias_constraint": null}, "inbound_nodes": [["concatenate_1", 0, 0, {}]]}, {"name": "add_1", "class_name": "Add", "config": {"name": "add_1", "trainable": true, "dtype": "float32"}, "inbound_nodes": [[["res1b_branch2b", 0, 0, {}], ["activation_3", 0, 0, {}]]]}, {"name": "activation_7", "class_name": "Activation", "config": {"name": "activation_7", "trainable": true, "dtype": "float32", "activation": "relu"}, "inbound_nodes": [["add_1", 0, 0, {}]]}, {"name": "dense_1", "class_name": "Dense", "config": {"name": "dense_1", "trainable": true, "dtype": "float32", "units": 100, "activation": "relu", "use_bias": true, "kernel_initializer": {"class_name": "GlorotUniform", "config": {"seed": null}}, "bias_initializer": {"class_name": "Zeros", "config": {}}, "kernel_regularizer": null, "bias_regularizer": null, "activity_regularizer": null, "kernel_constraint": null, "bias_constraint": null}, "inbound_nodes": [["activation_7", 0, 0, {}]]}, {"name": "output_1", "class_name": "Dense", "config": {"name": "output_1", "trainable": true, "dtype": "float32", "units": 11, "activation": "linear", "use_bias": true, "kernel_initializer": {"class_name": "GlorotUniform", "config": {"seed": null}}, "bias_initializer": {"class_name": "Zeros", "config": {}}, "kernel_regularizer": null, "bias_regularizer": null, "activity_regularizer": null, "kernel_constraint": null, "bias_constraint": null}, "inbound_nodes": [["dense_1", 0, 0, {}]]}], "input_layers": ["input_1", 0, 0], "output_layers": ["output_1", 0, 0]}, "keras_version": "2.2.4-tf", "backend": "tensorflow"}